(27269, 30, 30, 3) (27269,)
(21815, 30, 30, 3) (5454, 30, 30, 3) (21815,) (5454,)
Model: "sequential_1"

total data 
(41249, 30, 30, 3) (41249,)
(32999, 30, 30, 3) (8250, 30, 30, 3) (32999,) (8250,)

				_________________________________________________________________
				Layer (type)                 Output Shape              Param #   
				=================================================================
				conv2d_4 (Conv2D)            (None, 26, 26, 32)        2432      
				_________________________________________________________________
				conv2d_5 (Conv2D)            (None, 22, 22, 32)        25632     
				_________________________________________________________________
				max_pooling2d_2 (MaxPooling2 (None, 11, 11, 32)        0         
				_________________________________________________________________
				dropout_3 (Dropout)          (None, 11, 11, 32)        0         
				_________________________________________________________________
				conv2d_6 (Conv2D)            (None, 9, 9, 64)          18496     
				_________________________________________________________________
				conv2d_7 (Conv2D)            (None, 7, 7, 64)          36928     
				_________________________________________________________________
				max_pooling2d_3 (MaxPooling2 (None, 3, 3, 64)          0         
				_________________________________________________________________
				dropout_4 (Dropout)          (None, 3, 3, 64)          0         
				_________________________________________________________________
				flatten_1 (Flatten)          (None, 576)               0         
				_________________________________________________________________
				dense_2 (Dense)              (None, 256)               147712    
				_________________________________________________________________
				dropout_5 (Dropout)          (None, 256)               0         
				_________________________________________________________________
				dense_3 (Dense)              (None, 43)                11051     
				=================================================================
				
Total params: 242,251
Trainable params: 242,251
Non-trainable params: 0



Epoch 10/15
682/682 [==============================] - 39s 57ms/step - loss: 0.0475 - accuracy: 0.9871 - val_loss: 0.0141 - val_accuracy: 0.9960
Epoch 11/15
682/682 [==============================] - 37s 54ms/step - loss: 0.0421 - accuracy: 0.9876 - val_loss: 0.0102 - val_accuracy: 0.9974
…
